models/controlnet/fooocus_ip_negative.safetensors (safetensors, 65616 bytes, 1 tensors)

data f2 [1, 16, 2048]
0	0xb1a3	-0.1761
1	0x399f	0.7026
2	0xaf91	-0.1182
3	0xb570	-0.3398
4	0xb8aa	-0.583
5	0x2dd3	0.091
6	0xafd9	-0.1226
7	0xb4c7	-0.2986
8	0x2e8c	0.1023
9	0xb0b6	-0.1472
10	0xa011	-0.00794
11	0x3569	0.3381
12	0xb67c	-0.4053
13	0xb57a	-0.3423
14	0x353d	0.3274
15	0x09e9	0.0001804
16	0xa315	-0.01383
17	0xa533	-0.02031
18	0xb262	-0.1995
19	0xb040	-0.1328
20	0x23ba	0.01509
21	0x29a2	0.044
22	0xb4ff	-0.3123
23	0x2ed8	0.10693
24	0x31d2	0.1819
25	0xae8b	-0.10223
26	0x2ff7	0.12445
27	0xb472	-0.2778
28	0x281e	0.03217
29	0xaeff	-0.1093
30	0x2cb5	0.07355
31	0xacb2	-0.07336
32	0x37ff	0.4998
33	0x3751	0.4573
34	0x30f6	0.155
35	0xac1f	-0.0644
36	0xa1a8	-0.01105
37	0x3461	0.2737
38	0x2ad5	0.05338
39	0xb1d4	-0.1821
40	0xb409	-0.2522
41	0xafde	-0.1229
42	0xa87f	-0.03513
43	0xaf04	-0.1096
44	0x36a5	0.4153
45	0x31ab	0.1771
46	0x3457	0.2712
47	0xaae7	-0.05392
48	0xadc6	-0.0902
49	0xac0a	-0.0631
50	0x293c	0.0409
51	0xa480	-0.01758
52	0xb406	-0.2515
53	0xb4bd	-0.2961
54	0x16f0	0.001694
55	0xa469	-0.01723
56	0xaa39	-0.0486
57	0x20d2	0.009415
58	0xaaa7	-0.05197
59	0xb28e	-0.2048
60	0x197d	0.00268
61	0x3643	0.3914
62	0x30ad	0.1461
63	0x365c	0.3975
64	0x304b	0.1342
65	0xaf61	-0.1153
66	0x2c7c	0.07007
67	0xafa9	-0.1197
68	0x2c88	0.0708
69	0x2a06	0.04706
70	0x352b	0.323
71	0xb45a	-0.272
72	0x2f16	0.1107
73	0x346b	0.2761
74	0xb85c	-0.545
75	0xb332	-0.2249
76	0x373c	0.4521
77	0x2d5d	0.0838
78	0x2dc0	0.08984
79	0x348c	0.2842
80	0x246a	0.01724
81	0x2cf5	0.07745
82	0x32ed	0.2164
83	0xb691	-0.4104
84	0x23fc	0.015594
85	0x31dc	0.1831
86	0xadf0	-0.0928
87	0x28fb	0.0389
88	0xac2f	-0.06537
89	0x30b0	0.1465
90	0x31e3	0.184
91	0x342d	0.261
92	0x2be3	0.0616
93	0xb27d	-0.2028
94	0x31ac	0.1772
95	0x328e	0.2048
96	0x2c55	0.0677
97	0x3346	0.2273
98	0x2ca0	0.07227
99	0x3400	0.25
100	0xafaf	-0.12006
101	0xaa01	-0.0469
102	0x354f	0.3318
103	0x2cfc	0.0779
104	0xb43e	-0.2651
105	0x3221	0.1915
106	0xaaaf	-0.05222
107	0x36d7	0.4275
108	0xb42f	-0.2615
109	0xb583	-0.3445
110	0xb0c2	-0.1487
111	0x349c	0.288
112	0x2d95	0.0872
113	0x2e40	0.09766
114	0x3261	0.1993
115	0x35a7	0.3533
116	0xaf60	-0.11523
117	0xad1b	-0.0798
118	0xb65c	-0.3975
119	0x2d73	0.08514
120	0x94a7	-0.001136
121	0xafa1	-0.1192
122	0xaef0	-0.1084
123	0x31b1	0.1779
124	0x2c41	0.06647
125	0x32d7	0.2137
126	0x3367	0.2313
127	0x3481	0.2815
128	0xb255	-0.1979
129	0x2c98	0.0718
130	0xae2a	-0.0963
131	0x2c17	0.0639
132	0x3204	0.188
133	0xb26a	-0.2004
134	0x3133	0.1625
135	0xa9ac	-0.0443
136	0x3312	0.221
137	0x9a9b	-0.003225
138	0xb2ae	-0.2087
139	0xb3eb	-0.2474
140	0xa93d	-0.04092
141	0x2e05	0.09406
142	0x2720	0.02783
143	0x3138	0.1631
144	0x2951	0.04153
145	0xb0b8	-0.1475
146	0xad07	-0.07855
147	0x2c91	0.07135
148	0xaf09	-0.1099
149	0x30d4	0.1509
150	0x2ce9	0.0767
151	0x34a4	0.29
152	0xac8e	-0.07117
153	0x2ae2	0.05377
154	0x2814	0.03186
155	0x255f	0.02098
156	0x2a5d	0.0497
157	0xb19e	-0.1755
158	0xb041	-0.1329
159	0x333f	0.2264
160	0xb496	-0.2866
161	0xa170	-0.01062
162	0xacc7	-0.07465
163	0xb0f0	-0.1543
164	0xac5c	-0.0681
165	0x2705	0.02742
166	0x3484	0.2822
167	0x181e	0.00201
168	0xb638	-0.3887
169	0xb111	-0.1583
170	0xb4a4	-0.29
171	0xa216	-0.01189
172	0x2c99	0.07184
173	0xadf0	-0.0928
174	0xae5e	-0.0995
175	0x35f3	0.3718
176	0xb2dc	-0.2144
177	0xa1b2	-0.01112
178	0x29b6	0.04462
179	0x1f6c	0.007248
180	0x3119	0.1593
181	0x3556	0.3335
182	0x3874	0.5566
183	0x3612	0.3794
184	0xab3f	-0.0566
185	0x2c87	0.07074
186	0x3354	0.229
187	0xc260	-3.188
188	0xb420	-0.2578
189	0xa03a	-0.008255
190	0x2f47	0.1137
191	0x2a1c	0.04773
192	0xb7c7	-0.486
193	0x2ccb	0.0749
194	0xadf3	-0.09296
195	0x355c	0.335
196	0x3238	0.1943
197	0xb6a2	-0.4146
198	0x3fe8	1.977
199	0x9d90	-0.005432
200	0xb56d	-0.339
201	0xb56e	-0.3394
202	0xb2c0	-0.2109
203	0xaf26	-0.1117
204	0x2ee6	0.1078
205	0xa26c	-0.01254
206	0x2bbc	0.06042
207	0x257c	0.02142
208	0x3262	0.1995
209	0xb01a	-0.1282
210	0xaaa5	-0.0519
211	0x2e8b	0.10223
212	0x31cf	0.1815
213	0xac9c	-0.072
214	0x3559	0.3342
215	0x28b6	0.0368
216	0xafb2	-0.12024
217	0x3526	0.3218
218	0xad1f	-0.08
219	0x3697	0.4119
220	0xb2c2	-0.2112
221	0xac7f	-0.07025
222	0x32e2	0.2151
223	0xb581	-0.344
224	0xa9f5	-0.04654
225	0xb53a	-0.3267
226	0x309f	0.1444
227	0x323a	0.1946
228	0xb5e9	-0.3694
229	0x2c25	0.06476
230	0x2cec	0.0769
231	0x2c15	0.0638
232	0xadbb	-0.08954
233	0x307d	0.1403
234	0x3362	0.2307
235	0xb0eb	-0.1537
236	0xbfba	-1.932
237	0xb3da	-0.2454
238	0xb449	-0.2678
239	0x2a28	0.0481
240	0xa8a1	-0.03616
241	0x2e26	0.09607
242	0x355a	0.3345
243	0x3077	0.1395
244	0x357e	0.3433
245	0x2afb	0.05453
246	0xac7d	-0.0701
247	0x3793	0.4734
248	0x324b	0.1967
249	0xb1c8	-0.1807
250	0xb834	-0.5254
251	0x3532	0.3247
252	0x2cbd	0.07404
253	0xae38	-0.09717
254	0xa6e9	-0.027
255	0x2cea	0.0768
